…
age0-last.checkpoint.pth\"\n)\nstage0_net.to(DEVICE).eval()\n","metadata":{"trusted":true,"execution":{"iopub.status.busy":"2026-01-10T09:36:51.940960Z","iopub.execute_input":"2026-01-10T09:36:51.941249Z","iopub.status.idle":"2026-01-10T09:36:52.844139Z","shell.execute_reply.started":"2026-01-10T09:36:51.941225Z","shell.execute_reply":"2026-01-10T09:36:52.843542Z"}},"outputs":[{"name":"stdout","text":"<All keys matched successfully>\n","output_type":"stream"},{"execution_count":8,"output_type":"execute_result","data":{"text/plain":"Net(\n  (encoder): ResNet(\n    (conv1): Sequential(\n      (0): Conv2d(3, 32, kernel_size=(3, 3), stride=(2, 2), padding=(1, 1), bias=False)\n      (1): BatchNorm2d(32, eps=1e-05, momentum=0.1, affine=True, track_running_stats=True)\n      (2): ReLU(inplace=True)\n      (3): Conv2d(32, 32, kernel_size=(3, 3), stride=(1, 1), padding=(1, 1), bias=False)\n      (4): BatchNorm2d(32, eps=1e-05, momentum=0.1, affine=True, track_running_stats=True)\n      (5): ReLU(inplace=True)\n      (6): Conv2d(32, 64, kernel_size=(3, 3), stride=(1, 1), padding=(1, 1), bias=False)\n    )\n    (bn1): BatchNorm2d(64, eps=1e-05, momentum=0.1, affine=True, track_running_stats=True)\n    (act1): ReLU(inplace=True)\n    (maxpool): MaxPool2d(kernel_size=3, stride=2, padding=1, dilation=1, ceil_mode=False)\n    (layer1): Sequential(\n      (0): BasicBlock(\n        (conv1): Conv2d(64, 64, kernel_size=(3, 3), stride=(1, 1), padding=(1, 1), bias=False)\n        (bn1): BatchNorm2d(64, eps=1e-05, momentum=0.1, affine=True, track_running_stats=True)\n        (drop_block): Identity()\n        (act1): ReLU(inplace=True)\n        (aa): Identity()\n        (conv2): Conv2d(64, 64, kernel_size=(3, 3), stride=(1, 1), padding=(1, 1), bias=False)\n        (bn2): BatchNorm2d(64, eps=1e-05, momentum=0.1, affine=True, track_running_stats=True)\n        (act2): ReLU(inplace=True)\n      )\n      (1): BasicBlock(\n        (conv1): Conv2d(64, 64, kernel_size=(3, 3), stride=(1, 1), padding=(1, 1), bias=False)\n        (bn1): BatchNorm2d(64, eps=1e-05, momentum=0.1, affine=True, track_running_stats=True)\n        (drop_block): Identity()\n        (act1): ReLU(inplace=True)\n        (aa): Identity()\n        (conv2): Conv2d(64, 64, kernel_size=(3, 3), stride=(1, 1), padding=(1, 1), bias=False)\n        (bn2): BatchNorm2d(64, eps=1e-05, momentum=0.1, affine=True, track_running_stats=True)\n        (act2): ReLU(inplace=True)\n      )\n    )\n    (layer2): Sequential(\n      (0): BasicBlock(\n        (conv1): Conv2d(64, 128, kernel_size=(3, 3), stride=(2, 2), padding=(1, 1), bias=False)\n        (bn1): BatchNorm2d(128, eps=1e-05, momentum=0.1, affine=True, track_running_stats=True)\n        (drop_block): Identity()\n        (act1): ReLU(inplace=True)\n        (aa): Identity()\n        (conv2): Conv2d(128, 128, kernel_size=(3, 3), stride=(1, 1), padding=(1, 1), bias=False)\n        (bn2): BatchNorm2d(128, eps=1e-05, momentum=0.1, affine=True, track_running_stats=True)\n        (act2): ReLU(inplace=True)\n        (downsample): Sequential(\n          (0): AvgPool2d(kernel_size=2, stride=2, padding=0)\n          (1): Conv2d(64, 128, kernel_size=(1, 1), stride=(1, 1), bias=False)\n          (2): BatchNorm2d(128, eps=1e-05, momentum=0.1, affine=True, track_running_stats=True)\n        )\n      )\n      (1): BasicBlock(\n        (conv1): Conv2d(128, 128, kernel_size=(3, 3), stride=(1, 1), padding=(1, 1), bias=False)\n        (bn1): BatchNorm2d(128, eps=1e-05, momentum=0.1, affine=True, track_running_stats=True)\n        (drop_block): Identity()\n        (act1): ReLU(inplace=True)\n        (aa): Identity()\n        (conv2): Conv2d(128, 128, kernel_size=(3, 3), stride=(1, 1), padding=(1, 1), bias=False)\n        (bn2): BatchNorm2d(128, eps=1e-05, momentum=0.1, affine=True, track_running_stats=True)\n        (act2): ReLU(inplace=True)\n      )\n    )\n    (layer3): Sequential(\n      (0): BasicBlock(\n        (conv1): Conv2d(128, 256, kernel_size=(3, 3), stride=(2, 2), padding=(1, 1), bias=False)\n        (bn1): BatchNorm2d(256, eps=1e-05, momentum=0.1, affine=True, track_running_stats=True)\n        (drop_block): Identity()\n        (act1): ReLU(inplace=True)\n        (aa): Identity()\n        (conv2): Conv2d(256, 256, kernel_size=(3, 3), stride=(1, 1), padding=(1, 1), bias=False)\n        (bn2): BatchNorm2d(256, eps=1e-05, momentum=0.1, affine=True, track_running_stats=True)\n        (act2): ReLU(inplace=True)\n        (downsample): Sequential(\n          (0): AvgPool2d(kernel_size=2, stride=2, padding=0)\n          (1): Conv2d(128, 256, kernel_size=(1, 1), stride=(1, 1), bias=False)\n          (2): BatchNorm2d(256, eps=1e-05, momentum=0.1, affine=True, track_running_stats=True)\n        )\n      )\n      (1): BasicBlock(\n        (conv1): Conv2d(256, 256, kernel_size=(3, 3), stride=(1, 1), padding=(1, 1), bias=False)\n        (bn1): BatchNorm2d(256, eps=1e-05, momentum=0.1, affine=True, track_running_stats=True)\n        (drop_block): Identity()\n        (act1): ReLU(inplace=True)\n        (aa): Identity()\n        (conv2): Conv2d(256, 256, kernel_size=(3, 3), stride=(1, 1), padding=(1, 1), bias=False)\n        (bn2): BatchNorm2d(256, eps=1e-05, momentum=0.1, affine=True, track_running_stats=True)\n        (act2): ReLU(inplace=True)\n      )\n    )\n    (layer4): Sequential(\n      (0): BasicBlock(\n        (conv1): Conv2d(256, 512, kernel_size=(3, 3), stride=(2, 2), padding=(1, 1), bias=False)\n        (bn1): BatchNorm2d(512, eps=1e-05, momentum=0.1, affine=True, track_running_stats=True)\n        (drop_block): Identity()\n        (act1): ReLU(inplace=True)\n        (aa): Identity()\n        (conv2): Conv2d(512, 512, kernel_size=(3, 3), stride=(1, 1), padding=(1, 1), bias=False)\n        (bn2): BatchNorm2d(512, eps=1e-05, momentum=0.1, affine=True, track_running_stats=True)\n        (act2): ReLU(inplace=True)\n        (downsample): Sequential(\n          (0): AvgPool2d(kernel_size=2, stride=2, padding=0)\n          (1): Conv2d(256, 512, kernel_size=(1, 1), stride=(1, 1), bias=False)\n          (2): BatchNorm2d(512, eps=1e-05, momentum=0.1, affine=True, track_running_stats=True)\n        )\n      )\n      (1): BasicBlock(\n        (conv1): Conv2d(512, 512, kernel_size=(3, 3), stride=(1, 1), padding=(1, 1), bias=False)\n        (bn1): BatchNorm2d(512, eps=1e-05, momentum=0.1, affine=True, track_running_stats=True)\n        (drop_block): Identity()\n        (act1): ReLU(inplace=True)\n        (aa): Identity()\n        (conv2): Conv2d(512, 512, kernel_size=(3, 3), stride=(1, 1), padding=(1, 1), bias=False)\n        (bn2): BatchNorm2d(512, eps=1e-05, momentum=0.1, affine=True, track_running_stats=True)\n        (act2): ReLU(inplace=True)\n      )\n    )\n    (global_pool): SelectAdaptivePool2d(pool_type=, flatten=Identity())\n    (fc): Identity()\n  )\n  (decoder): MyUnetDecoder(\n    (center): Identity()\n    (block): ModuleList(\n      (0): MyDecoderBlock(\n        (conv1): Sequential(\n          (0): Conv2d(768, 256, kernel_size=(3, 3), stride=(1, 1), padding=(1, 1), bias=False)\n          (1): BatchNorm2d(256, eps=1e-05, momentum=0.1, affine=True, track_running_stats=True)\n          (2): ReLU(inplace=True)\n        )\n        (attention1): Identity()\n        (conv2): Sequential(\n          (0): Conv2d(256, 256, kernel_size=(3, 3), stride=(1, 1), padding=(1, 1), bias=False)\n          (1): BatchNorm2d(256, eps=1e-05, momentum=0.1, affine=True, track_running_stats=True)\n          (2): ReLU(inplace=True)\n        )\n        (attention2): Identity()\n      )\n      (1): MyDecoderBlock(\n        (conv1): Sequential(\n          (0): Conv2d(384, 128, kernel_size=(3, 3), stride=(1, 1), padding=(1, 1), bias=False)\n          (1): BatchNorm2d(128, eps=1e-05, momentum=0.1, affine=True, track_running_stats=True)\n          (2): ReLU(inplace=True)\n        )\n        (attention1): Identity()\n        (conv2): Sequential(\n          (0): Conv2d(128, 128, kernel_size=(3, 3), stride=(1, 1), padding=(1, 1), bias=False)\n          (1): BatchNorm2d(128, eps=1e-05, momentum=0.1, affine=True, track_running_stats=True)\n          (2): ReLU(inplace=True)\n        )\n        (attention2): Identity()\n      )\n      (2): MyDecoderBlock(\n        (conv1): Sequential(\n          (0): Conv2d(192, 64, kernel_size=(3, 3), stride=(1, 1), padding=(1, 1), bias=False)\n          (1): BatchNorm2d(64, eps=1e-05, momentum=0.1, affine=True, track_running_stats=True)\n          (2): ReLU(inplace=True)\n        )\n        (attention1): Identity()\n        (conv2): Sequential(\n          (0): Conv2d(64, 64, kernel_size=(3, 3), stride=(1, 1), padding=(1, 1), bias=False)\n          (1): BatchNorm2d(64, eps=1e-05, momentum=0.1, affine=True, track_running_stats=True)\n          (2): ReLU(inplace=True)\n        )\n        (attention2): Identity()\n      )\n      (3): MyDecoderBlock(\n        (conv1): Sequential(\n          (0): Conv2d(64, 32, kernel_size=(3, 3), stride=(1, 1), padding=(1, 1), bias=False)\n          (1): BatchNorm2d(32, eps=1e-05, momentum=0.1, affine=True, track_running_stats=True)\n          (2): ReLU(inplace=True)\n        )\n        (attention1): Identity()\n        (conv2): Sequential(\n          (0): Conv2d(32, 32, kernel_size=(3, 3), stride=(1, 1), padding=(1, 1), bias=False)\n          (1): BatchNorm2d(32, eps=1e-05, momentum=0.1, affine=True, track_running_stats=True)\n          (2): ReLU(inplace=True)\n        )\n        (attention2): Identity()\n      )\n    )\n  )\n  (marker): Conv2d(32, 14, kernel_size=(1, 1), stride=(1, 1))\n  (orientation): Linear(in_features=512, out_features=8, bias=True)\n)"},"metadata":{}}],"execution_count":8},{"cell_type":"code","source":"stage0_out = {}\n\nfor sid in tqdm(test_id):\n    img = cv2.cvtColor(\n        cv2.imread(str(test_dir / f\"{sid}.png\")),\n        cv2.COLOR_BGR2RGB\n    )\n\n    batch = image_to_batch(change_color(img))\n\n    # 🔥 FIX HERE\n    batch[\"image\"] = batch[\"image\"].to(DEVICE)\n\n   
…
